…
To enable the following instructions: AVX2 AVX512F AVX512_VNNI AVX512_BF16 AVX512_FP16 AVX_VNNI AMX_TILE AMX_INT8 AMX_BF16 FMA, in other operations, rebuild TensorFlow with the appropriate compiler flags.
2025-10-15 02:39:40.006023: I tensorflow/core/util/port.cc:153] oneDNN custom operations are on. You may see slightly different numerical results due to floating-point round-off errors from different computation orders. To turn them off, set the environment variable `TF_ENABLE_ONEDNN_OPTS=0`.
Split Learning Scheme: Overall Cutting_layer 4/13
Total number of batches per epoch for each client is  391
32
original channel size of smashed-data is 128
added bottleneck, new channel size of smashed-data is 8
local:
Sequential(
  (0): Conv2d(3, 64, kernel_size=(3, 3), stride=(1, 1), padding=(1, 1))
  (1): BatchNorm2d(64, eps=1e-05, momentum=0.1, affine=True, track_running_stats=True)
  (2): ReLU(inplace=True)
  (3): MaxPool2d(kernel_size=2, stride=2, padding=0, dilation=1, ceil_mode=False)
  (4): Conv2d(64, 128, kernel_size=(3, 3), stride=(1, 1), padding=(1, 1))
  (5): BatchNorm2d(128, eps=1e-05, momentum=0.1, affine=True, track_running_stats=True)
  (6): ReLU(inplace=True)
  (7): MaxPool2d(kernel_size=2, stride=2, padding=0, dilation=1, ceil_mode=False)
  (8): Conv2d(128, 8, kernel_size=(3, 3), stride=(1, 1), padding=(1, 1))
  (9): LCALayer()
  (10): Sigmoid()
)
cloud:
Sequential(
  (0): Conv2d(8, 128, kernel_size=(3, 3), stride=(1, 1), padding=(1, 1))
  (1): Conv2d(128, 256, kernel_size=(3, 3), stride=(1, 1), padding=(1, 1))
  (2): BatchNorm2d(256, eps=1e-05, momentum=0.1, affine=True, track_running_stats=True)
  (3): ReLU(inplace=True)
  (4): Conv2d(256, 256, kernel_size=(3, 3), stride=(1, 1), padding=(1, 1))
  (5): BatchNorm2d(256, eps=1e-05, momentum=0.1, affine=True, track_running_stats=True)
  (6): ReLU(inplace=True)
  (7): MaxPool2d(kernel_size=2, stride=2, padding=0, dilation=1, ceil_mode=False)
  (8): Conv2d(256, 512, kernel_size=(3, 3), stride=(1, 1), padding=(1, 1))
  (9): BatchNorm2d(512, eps=1e-05, momentum=0.1, affine=True, track_running_stats=True)
  (10): ReLU(inplace=True)
  (11): Conv2d(512, 512, kernel_size=(3, 3), stride=(1, 1), padding=(1, 1))
  (12): BatchNorm2d(512, eps=1e-05, momentum=0.1, affine=True, track_running_stats=True)
  (13): ReLU(inplace=True)
  (14): MaxPool2d(kernel_size=2, stride=2, padding=0, dilation=1, ceil_mode=False)
  (15): Conv2d(512, 512, kernel_size=(3, 3), stride=(1, 1), padding=(1, 1))
  (16): BatchNorm2d(512, eps=1e-05, momentum=0.1, affine=True, track_running_stats=True)
  (17): ReLU(inplace=True)
  (18): Conv2d(512, 512, kernel_size=(3, 3), stride=(1, 1), padding=(1, 1))
  (19): BatchNorm2d(512, eps=1e-05, momentum=0.1, affine=True, track_running_stats=True)
  (20): ReLU(inplace=True)
  (21): MaxPool2d(kernel_size=2, stride=2, padding=0, dilation=1, ceil_mode=False)
)
classifier:
Sequential(
  (0): Dropout(p=0.5, inplace=False)
  (1): Linear(in_features=512, out_features=512, bias=True)
  (2): ReLU(inplace=True)
  (3): Dropout(p=0.5, inplace=False)
  (4): Linear(in_features=512, out_features=512, bias=True)
  (5): ReLU(inplace=True)
  (6): Linear(in_features=512, out_features=10, bias=True)
)
the test model is: best
load client 0's local
./saves/cifar10/SCA_new_infocons_sgm_lg1_thre0.125/pretrain_False_lambd_16_noise_0.025_epoch_240_bottleneck_noRELU_C8S1_log_1_ATstrength_0.3_lr_0.05_varthres_0.125/checkpoint_f_best.tar
load cloud
load classifier
Model's smashed-data size is torch.Size([1, 8, 8, 8])
Sequential(
  85.26 k, 24.541% Params, 21.73 MMac, 13.891% MACs, 
  (0): Conv2d(1.79 k, 0.516% Params, 1.84 MMac, 1.173% MACs, 3, 64, kernel_size=(3, 3), stride=(1, 1), padding=(1, 1))
  (1): BatchNorm2d(128, 0.037% Params, 131.07 KMac, 0.084% MACs, 64, eps=1e-05, momentum=0.1, affine=True, track_running_stats=True)
  (2): ReLU(0, 0.000% Params, 65.54 KMac, 0.042% MACs, inplace=True)
  (3): MaxPool2d(0, 0.000% Params, 65.54 KMac, 0.042% MACs, kernel_size=2, stride=2, padding=0, dilation=1, ceil_mode=False)
  (4): Conv2d(73.86 k, 21.260% Params, 18.91 MMac, 12.089% MACs, 64, 128, kernel_size=(3, 3), stride=(1, 1), padding=(1, 1))
  (5): BatchNorm2d(256, 0.074% Params, 65.54 KMac, 0.042% MACs, 128, eps=1e-05, momentum=0.1, affine=True, track_running_stats=True)
  (6): ReLU(0, 0.000% Params, 32.77 KMac, 0.021% MACs, inplace=True)
  (7): MaxPool2d(0, 0.000% Params, 32.77 KMac, 0.021% MACs, kernel_size=2, stride=2, padding=0, dilation=1, ceil_mode=False)
  (8): Conv2d(9.22 k, 2.655% Params, 590.34 KMac, 0.377% MACs, 128, 8, kernel_size=(3, 3), stride=(1, 1), padding=(1, 1))
  (9): LCALayer(0, 0.000% Params, 0.0 Mac, 0.000% MACs, )
  (10): Sigmoid(0, 0.000% Params, 0.0 Mac, 0.000% MACs, )
)
FLOPs: 156.4 MMac, Parameters: 347.4 k
VGG(
  9.77 M, 97.388% Params, 155.22 MMac, 53.527% MACs, 
  (local): Sequential(
    85.26 k, 0.849% Params, 21.73 MMac, 7.492% MACs, 
    (0): Conv2d(1.79 k, 0.018% Params, 1.84 MMac, 0.633% MACs, 3, 64, kernel_size=(3, 3), stride=(1, 1), padding=(1, 1))
    (1): BatchNorm2d(128, 0.001% Params, 131.07 KMac, 0.045% MACs, 64, eps=1e-05, momentum=0.1, affine=True, track_running_stats=True)
    (2): ReLU(0, 0.000% Params, 65.54 KMac, 0.023% MACs, inplace=True)
    (3): MaxPool2d(0, 0.000% Params, 65.54 KMac, 0.023% MACs, kernel_size=2, stride=2, padding=0, dilation=1, ceil_mode=False)
    (4): Conv2d(73.86 k, 0.736% Params, 18.91 MMac, 6.520% MACs, 64, 128, kernel_size=(3, 3), stride=(1, 1), padding=(1, 1))
    (5): BatchNorm2d(256, 0.003% Params, 65.54 KMac, 0.023% MACs, 128, eps=1e-05, momentum=0.1, affine=True, track_running_stats=True)
    (6): ReLU(0, 0.000% Params, 32.77 KMac, 0.011% MACs, inplace=True)
    (7): MaxPool2d(0, 0.000% Params, 32.77 KMac, 0.011% MACs, kernel_size=2, stride=2, padding=0, dilation=1, ceil_mode=False)
    (8): Conv2d(9.22 k, 0.092% Params, 590.34 KMac, 0.204% MACs, 128, 8, kernel_size=(3, 3), stride=(1, 1), padding=(1, 1))
    (9): LCALayer(0, 0.000% Params, 0.0 Mac, 0.000% MACs, )
    (10): Sigmoid(0, 0.000% Params, 0.0 Mac, 0.000% MACs, )
  )
  (cloud): Sequential(
    9.16 M, 91.254% Params, 132.96 MMac, 45.852% MACs, 
    (0): Conv2d(9.34 k, 0.093% Params, 598.02 KMac, 0.206% MACs, 8, 128, kernel_size=(3, 3), stride=(1, 1), padding=(1, 1))
    (1): Conv2d(295.17 k, 2.941% Params, 18.89 MMac, 6.515% MACs, 128, 256, kernel_size=(3, 3), stride=(1, 1), padding=(1, 1))
    (2): BatchNorm2d(512, 0.005% Params, 32.77 KMac, 0.011% MACs, 256, eps=1e-05, momentum=0.1, affine=True, track_running_stats=True)
    (3): ReLU(0, 0.000% Params, 16.38 KMac, 0.006% MACs, inplace=True)
    (4): Conv2d(590.08 k, 5.879% Params, 37.77 MMac, 13.024% MACs, 256, 256, kernel_size=(3, 3), stride=(1, 1), padding=(1, 1))
    (5): BatchNorm2d(512, 0.005% Params, 32.77 KMac, 0.011% MACs, 256, eps=1e-05, momentum=0.1, affine=True, track_running_stats=True)
    (6): ReLU(0, 0.000% Params, 16.38 KMac, 0.006% MACs, inplace=True)
    (7): MaxPool2d(0, 0.000% Params, 16.38 KMac, 0.006% MACs, kernel_size=2, stride=2, padding=0, dilation=1, ceil_mode=False)
    (8): Conv2d(1.18 M, 11.758% Params, 18.88 MMac, 6.512% MACs, 256, 512, kernel_size=(3, 3), stride=(1, 1), padding=(1, 1))
    (9): BatchNorm2d(1.02 k, 0.010% Params, 16.38 KMac, 0.006% MACs, 512, eps=1e-05, momentum=0.1, affine=True, track_running_stats=True)
    (10): ReLU(0, 0.000% Params, 8.19 KMac, 0.003% MACs, inplace=True)
    (11): Conv2d(2.36 M, 23.511% Params, 37.76 MMac, 13.021% MACs, 512, 512, kernel_size=(3, 3), stride=(1, 1), padding=(1, 1))
    (12): BatchNorm2d(1.02 k, 0.010% Params, 16.38 KMac, 0.006% MACs, 512, eps=1e-05, momentum=0.1, affine=True, track_running_stats=True)
    (13): ReLU(0, 0.000% Params, 8.19 KMac, 0.003% MACs, inplace=True)
    (14): MaxPool2d(0, 0.000% Params, 8.19 KMac, 0.003% MACs, kernel_size=2, stride=2, padding=0, dilation=1, ceil_mode=False)
    (15): Conv2d(2.36 M, 23.511% Params, 9.44 MMac, 3.255% MACs, 512, 512, kernel_size=(3, 3), stride=(1, 1), padding=(1, 1))
    (16): BatchNorm2d(1.02 k, 0.010% Params, 4.1 KMac, 0.001% MACs, 512, eps=1e-05, momentum=0.1, affine=True, track_running_stats=True)
    (17): ReLU(0, 0.000% Params, 2.05 KMac, 0.001% MACs, inplace=True)
    (18): Conv2d(2.36 M, 23.511% Params, 9.44 MMac, 3.255% MACs, 512, 512, kernel_size=(3, 3), stride=(1, 1), padding=(1, 1))
    (19): BatchNorm2d(1.02 k, 0.010% Params, 4.1 KMac, 0.001% MACs, 512, eps=1e-05, momentum=0.1, affine=True, track_running_stats=True)
    (20): ReLU(0, 0.000% Params, 2.05 KMac, 0.001% MACs, inplace=True)
    (21): MaxPool2d(0, 0.000% Params, 2.05 KMac, 0.001% MACs, kernel_size=2, stride=2, padding=0, dilation=1, ceil_mode=False)
  )
  (classifier): Sequential(
    530.44 k, 5.285% Params, 531.47 KMac, 0.183% MACs, 
    (0): Dropout(0, 0.000% Params, 0.0 Mac, 0.000% MACs, p=0.5, inplace=False)
    (1): Linear(262.66 k, 2.617% Params, 262.66 KMac, 0.091% MACs, in_features=512, out_features=512, bias=True)
    (2): ReLU(0, 0.000% Params, 512.0 Mac, 0.000% MACs, inplace=True)
    (3): Dropout(0, 0.000% Params, 0.0 Mac, 0.000% MACs, p=0.5, inplace=False)
    (4): Linear(262.66 k, 2.617% Params, 262.66 KMac, 0.091% MACs, in_features=512, out_features=512, bias=True)
    (5): ReLU(0, 0.000% Params, 512.0 Mac, 0.000% MACs, inplace=True)
    (6): Linear(5.13 k, 0.051% Params, 5.13 KMac, 0.002% MACs, in_features=512, out_features=10, bias=True)
  )
)
FLOPs: 289.97 MMac, Parameters: 10.04 M
Model 1 Params: 347400, Model 2 Params: 10037138
推理时间: 182.74 ms
Epoch 0	Test (client-0):	Loss 0.4591 (0.4591)	Prec@1 86.719 (86.719)
Epoch 50	Test (client-0):	Loss 0.5432 (0.5153)	Prec@1 85.938 (84.176)
 * Prec@1 84.340
Best Average Validation Accuracy is 84.34
…
